data/reuploading_classifier/params/epoch_087.pt (torch, 2547 bytes, 3 tensors)

0.linear_layer.weight f8 [12, 2]
000000 89 e4 9c 00 89 b6 d4 bf 00 00 00 00 00 00 00 00
       -0.3236410623536093 0.0
000010 00 00 00 00 00 00 00 00 6b a7 cc 1e 2c da e6 bf
       0.0 -0.7141323663283691
000020 a6 27 3c 57 7c 2a ca bf 00 00 00 00 00 00 00 00
       -0.20442156085510738 0.0
000030 00 00 00 00 00 00 00 00 62 ca d3 15 28 10 d0 3f
       0.0 0.2509861195714277
000040 9c 4e bc d3 ac 47 e8 bf 00 00 00 00 00 00 00 00
       -0.7587494025669517 0.0
000050 00 00 00 00 00 00 00 00 34 4a 78 d1 c6 ad b7 3f
       0.0 0.09249537099848554
000060 02 ff ae 0e e0 d5 da 3f 00 00 00 00 00 00 00 00
       0.419303907718117 0.0
000070 00 00 00 00 00 00 00 00 90 61 ad 42 df 21 e8 bf
       0.0 -0.7541347791948727
000080 13 0e 63 bd d0 86 ec bf 00 00 00 00 00 00 00 00
       -0.8914569567645593 0.0
000090 00 00 00 00 00 00 00 00 9c 48 e7 32 02 e0 f6 bf
       0.0 -1.4296895969787675
0000a0 d4 42 34 60 4f dd e9 bf 00 00 00 00 00 00 00 00
       -0.8082653883921815 0.0
0000b0 00 00 00 00 00 00 00 00 5b b1 61 73 75 c3 dc 3f
       0.0 0.4494298579000053

0.linear_layer.bias f8 [12]
000000 4c e6 25 d4 07 58 ec bf d7 07 5c 88 23 70 9b 3f
       -0.8857459205166349 0.02679496307155901
000010 e5 f9 73 c3 f7 65 e5 3f 56 f7 ce 3e 07 63 89 3f
       0.6686972444002178 0.012395912746679432
000020 38 7b d4 86 1b 58 ec bf 0c a0 66 ba 71 6f a0 bf
       -0.8857553132437266 -0.03210025215531695
000030 0b 46 80 6f c5 8f da bf 9d 71 ef 7a 84 97 9a bf
       -0.41502509964729545 -0.02596861839616481
000040 7d b4 84 f8 71 cc ad bf fb 17 d6 62 d7 e9 96 3f
       -0.058200418078151885 0.022376408965577337
000050 41 81 5f 2a 67 38 f9 3f 0a e1 ca c4 f3 8a ff 3f
       1.5762702613065616 1.971423882218064

1.circuit_parameters f8 [1]
000000 00 00 00 00 00 00 00 00
       0.0
