data/reuploading_classifier/params/epoch_085.pt (torch, 2547 bytes, 3 tensors)

0.linear_layer.weight f8 [12, 2]
00000000: 3773 d4fb 738e d4bf 0000 0000 0000 0000
00000010: 0000 0000 0000 0000 17a5 119b 0fe8 e6bf
00000020: 74e1 6622 386b cabf 0000 0000 0000 0000
00000030: 0000 0000 0000 0000 6897 b162 45c1 d03f
00000040: a6ec 7a57 2b4e e8bf 0000 0000 0000 0000
00000050: 0000 0000 0000 0000 ae02 d64e 0bf4 b63f
00000060: 7e8a 9f00 2bcb da3f 0000 0000 0000 0000
00000070: 0000 0000 0000 0000 1fce 13e8 7df7 e7bf
00000080: 8514 5aa7 256a ecbf 0000 0000 0000 0000
00000090: 0000 0000 0000 0000 7744 a997 01ef f6bf
000000a0: 5fef a955 0bc8 e9bf 0000 0000 0000 0000
000000b0: 0000 0000 0000 0000 b47c 22f2 1187 d73f
-0.3211946448589517 0.0 0.0 -0.7158277538957546 -0.20639707259921247 0.0 0.0 0.2617963279538942
-0.7595421513173235 0.0 0.0 0.08966131853777412 0.4186503892980581 0.0 0.0 -0.7489614041100515
-0.8879574078170128 0.0 0.0 -1.433351128031317 -0.8056694672700181 0.0 0.0 0.3676190247151212

0.linear_layer.bias f8 [12]
00000000: b13f 5a3c b760 ecbf 4216 a55f 8472 9a3f
00000010: 889d a851 1756 e53f 35dd 585a 331e 813f
00000020: 37fd 93c7 075b ecbf d082 bf23 6219 a1bf
00000030: c1f7 3ee5 807e dabf 9eb5 f36b 7950 9abf
00000040: f588 3f6e 372e aebf 6c01 abca 6b89 983f
00000050: f8b2 8db3 4927 f93f 9cc3 bec2 b38e ff3f
-0.8868061236153065 0.02582747300882305 0.666759166230734 0.008358384318042237 -0.8861121080407547 -0.03339678465250062 -0.41397116076757007 -0.025697610105387285
-0.05894635411074659 0.023961719746468033 1.5720917714890543 1.9723394019349376

1.circuit_parameters f8 [1]
00000000: 0000 0000 0000 0000
0.0
