data/reuploading_classifier/params/epoch_088.pt (torch, 2547 bytes, 3 tensors)

0.linear_layer.weight f8 [12, 2]
000000 3b 99 6f 0b e7 c3 d4 bf 00 00 00 00 00 00 00 00
       -0.32445694081106397 0.0
000010 00 00 00 00 00 00 00 00 f6 6a ae b0 48 c7 e6 bf
       0.0 -0.7118266535574935
000020 16 97 9c a4 df 0e ca bf 00 00 00 00 00 00 00 00
       -0.20357890641860682 0.0
000030 00 00 00 00 00 00 00 00 06 c2 6b 65 a4 83 cf 3f
       0.0 0.24620490028566183
000040 dc 03 5f 9a 59 47 e8 bf 00 00 00 00 00 00 00 00
       -0.7587097182332587 0.0
000050 00 00 00 00 00 00 00 00 1e 67 71 7f 63 89 b8 3f
       0.0 0.09584638463402625
000060 e3 60 03 10 1a da da 3f 00 00 00 00 00 00 00 00
       0.4195618778590086 0.0
000070 00 00 00 00 00 00 00 00 19 45 2c f7 a0 29 e8 bf
       0.0 -0.7550816371532704
000080 e8 30 da 2a d1 93 ec bf 00 00 00 00 00 00 00 00
       -0.8930440747222095 0.0
000090 00 00 00 00 00 00 00 00 a0 77 99 f7 44 d2 f6 bf
       0.0 -1.4263353034834623
0000a0 5b 83 17 3c 9d e8 e9 bf 00 00 00 00 00 00 00 00
       -0.8096452878636272 0.0
0000b0 00 00 00 00 00 00 00 00 21 5b bd e8 76 8a de 3f
       0.0 0.4772012017105443

0.linear_layer.bias f8 [12]
000000 2d be 87 98 c4 5c ec bf de 05 d4 b9 85 27 9d 3f
       -0.8863242129427299 0.028471078364423856
000010 7b 39 93 e1 60 6a e5 3f d0 d1 7b 29 b6 7b 8f 3f
       0.6692356496585455 0.015372679844838283
000020 e8 f1 e3 f7 db 61 ec bf ab 1a c1 4d ab 14 9f bf
       -0.8869457093820161 -0.030352284069773344
000030 3f 4d 35 26 97 9b da bf 62 79 24 43 b3 db 99 bf
       -0.4157464860083628 -0.025252152417232117
000040 a4 b6 08 aa 1e fa ac bf d0 95 49 60 95 97 97 3f
       -0.056595762497051255 0.023039182664794045
000050 39 9f ef 55 4d 40 f9 3f b9 69 3a e5 64 87 ff 3f
       1.5781987530589972 1.9705552057481397

1.circuit_parameters f8 [1]
000000 00 00 00 00 00 00 00 00
       0.0
