data/reuploading_classifier/params/epoch_090.pt (torch, 2547 bytes, 3 tensors)

0.linear_layer.weight f8 [12, 2]
00000000: a497 35e5 86e5 d4bf 0000 0000 0000 0000
00000010: 0000 0000 0000 0000 ca89 e251 b17c e6bf
00000020: 3a7b fe26 e2e4 c9bf 0000 0000 0000 0000
00000030: 0000 0000 0000 0000 a951 fea9 f7c7 ce3f
00000040: 1c8c 632b 4145 e8bf 0000 0000 0000 0000
00000050: 0000 0000 0000 0000 8936 28aa 99e1 ba3f
00000060: 321b e51c f3e1 da3f 0000 0000 0000 0000
00000070: 0000 0000 0000 0000 8969 49ae 4f29 e8bf
00000080: bdd5 acd2 63aa ecbf 0000 0000 0000 0000
00000090: 0000 0000 0000 0000 5a0c b9e1 1fb3 f6bf
000000a0: 77c7 fc6f c9fa e9bf 0000 0000 0000 0000
000000b0: 0000 0000 0000 0000 9c3b 2b93 2420 e13f
-0.326509212338687 0.0 0.0 -0.7027212714495417 -0.20229746726996628 0.0 0.0 0.24047752190075514
-0.7584539267958266 0.0 0.0 0.10500488666749609 0.4200408727814874 0.0 0.0 -0.7550428775823984
-0.895799552416683 0.0 0.0 -1.4187315766619322 -0.8118636309866208 0.0 0.0 0.5351736902610926

0.linear_layer.bias f8 [12]
00000000: c1b9 b091 4366 ecbf c801 c0f9 d2a4 a03f
00000010: e31e 9bfa cf6e e53f fcbb e718 d388 953f
00000020: c1ed c32a bb86 ecbf 11d3 1fc7 dacb 9abf
00000030: f677 734b b1c6 dabf 65d1 9419 8a30 98bf
00000040: f234 fbcc f316 acbf 1c4a 08a6 8a68 993f
00000050: 4c57 95fe 6450 f93f 13d1 1390 956e ff3f
-0.8874833913339942 0.032507508265556206 0.6697769064566866 0.021029756922811046 -0.8914466700802494 -0.026168268588622704 -0.4183772312952664 -0.023622663318023557
-0.054862612506989 0.024812857040226274 1.582127565828574 1.9644981029533184

1.circuit_parameters f8 [1]
00000000: 0000 0000 0000 0000
0.0
