data/reuploading_classifier/params/epoch_046.pt (torch, 2547 bytes, 3 tensors)

0.linear_layer.weight f8 [12, 2]
000000 02 98 c9 6b f6 cb be bf 00 00 00 00 00 00 00 00
       -0.12029972201852959 0.0
000010 00 00 00 00 00 00 00 00 09 44 0e 09 8c 58 f1 bf
       0.0 -1.0841179231395037
000020 15 f4 07 0c 1b 15 d8 bf 00 00 00 00 00 00 00 00
       -0.3762881867876911 0.0
000030 00 00 00 00 00 00 00 00 80 44 6e d5 22 4f d8 3f
       0.0 0.37983008234829896
000040 81 7a 01 33 03 48 e8 bf 00 00 00 00 00 00 00 00
       -0.758790588017135 0.0
000050 00 00 00 00 00 00 00 00 2d ee fc a5 be 20 d5 3f
       0.0 0.33012357911840945
000060 47 76 d0 92 c2 a0 d7 3f 00 00 00 00 00 00 00 00
       0.369187014935822 0.0
000070 00 00 00 00 00 00 00 00 64 e8 5f bc f2 79 e5 bf
       0.0 -0.6711362532798941
000080 07 8e 90 0c a1 18 ec bf 00 00 00 00 00 00 00 00
       -0.878006481685987 0.0
000090 00 00 00 00 00 00 00 00 b7 2e 6e 93 19 f5 f7 bf
       0.0 -1.4973388442039501
0000a0 26 aa 4e b1 b3 fc e9 bf 00 00 00 00 00 00 00 00
       -0.8120974028618704 0.0
0000b0 00 00 00 00 00 00 00 00 ec b4 67 36 b8 a4 bd bf
       0.0 -0.11579467132806415

0.linear_layer.bias f8 [12]
000000 bb f4 61 7b 3e e5 ea bf 01 cb 31 76 a6 b0 90 bf
       -0.8404838952843855 -0.01629886719133378
000010 78 40 d4 a0 3d f3 e5 3f e1 6b a4 17 85 91 99 3f
       0.6859424725717096 0.024969176834115706
000020 fb 22 95 02 ad 1e eb bf c3 11 ca 66 35 d9 b0 bf
       -0.8474946070137713 -0.06581434020524228
000030 e3 a0 45 71 00 27 dd bf c5 df 06 60 99 ba a3 bf
       -0.4555054765865078 -0.03853301331713469
000040 95 ec 4d a1 56 7e af bf b1 6e 3b d7 02 3f b4 3f
       -0.061510760488965456 0.07908647303286888
000050 5f b0 6c e0 06 e8 f7 3f 33 67 48 0e 6e d5 f2 3f
       1.4941471830925577 1.177106910507473

1.circuit_parameters f8 [1]
000000 00 00 00 00 00 00 00 00
       0.0
