data/reuploading_classifier/params/epoch_079.pt (torch, 2547 bytes, 3 tensors)

0.linear_layer.weight f8 [12, 2]
000000 73 1b 95 27 61 11 d4 bf 00 00 00 00 00 00 00 00
       -0.3135607611224522 0.0
000010 00 00 00 00 00 00 00 00 00 77 78 f2 fb 5a e7 bf
       0.0 -0.7298564658883322
000020 66 30 35 b7 a1 f4 cb bf 00 00 00 00 00 00 00 00
       -0.21840306707088358 0.0
000030 00 00 00 00 00 00 00 00 17 2b d6 49 ce 80 d2 3f
       0.0 0.2891116829929827
000040 be a4 d9 dd e7 4c e8 bf 00 00 00 00 00 00 00 00
       -0.759387906361688 0.0
000050 00 00 00 00 00 00 00 00 de b8 f7 b0 6e a3 b9 3f
       0.0 0.10015003033160805
000060 87 0b dd a6 17 55 da 3f 00 00 00 00 00 00 00 00
       0.41144362731227385 0.0
000070 00 00 00 00 00 00 00 00 c2 5f cc 22 45 25 e7 bf
       0.0 -0.723299568143368
000080 00 72 89 13 c6 34 ec bf 00 00 00 00 00 00 00 00
       -0.8814421063976283 0.0
000090 00 00 00 00 00 00 00 00 1c 62 a9 4b d5 f2 f6 bf
       0.0 -1.4342854457410175
0000a0 27 07 02 24 15 03 ea bf 00 00 00 00 00 00 00 00
       -0.8128762915878028 0.0
0000b0 00 00 00 00 00 00 00 00 c1 d5 1a 61 3d c4 c3 3f
       0.0 0.15442626229712

0.linear_layer.bias f8 [12]
000000 f3 ac 17 90 b3 43 ec bf 7e 1e b1 5a 6f 79 a3 3f
       -0.8832643331819824 0.038035850353989695
000010 c2 03 58 71 92 52 e5 3f 98 31 7e e9 9f 1c 41 bf
       0.6663295949693906 -0.0005222111530982952
000020 0d 7b d9 eb 12 4a ec bf 6a 85 90 66 85 e6 a1 bf
       -0.8840422254978378 -0.0349618613911485
000030 5c 74 62 6a 02 2e da bf 05 ad c8 13 bf b6 90 bf
       -0.4090581931030266 -0.01632212217570574
000040 cd 9c b0 c4 52 8f ac bf 9c 17 62 f3 12 c1 9e 3f
       -0.05578097010612169 0.030033393959932306
000050 a7 92 fe ad 2b f9 f8 3f ef 32 3b 03 f8 20 fe 3f
       1.5608326718003498 1.8830490232677979

1.circuit_parameters f8 [1]
000000 00 00 00 00 00 00 00 00
       0.0
