data/reuploading_classifier/params/epoch_003.pt (torch, 2547 bytes, 3 tensors)

0.linear_layer.weight f8 [12, 2]
000000 ce a6 ae 8b 59 28 d7 bf 00 00 00 00 00 00 00 00
       -0.36183775559275666 0.0
000010 00 00 00 00 00 00 00 00 a5 ab 02 5b 40 73 f0 bf
       0.0 -1.0281375460715279
000020 83 d1 62 ce 59 af d5 bf 00 00 00 00 00 00 00 00
       -0.3388275638092397 0.0
000030 00 00 00 00 00 00 00 00 04 61 46 54 68 52 ec 3f
       0.0 0.88505951366372
000040 bf 2d 3e d1 78 3f ef bf 00 00 00 00 00 00 00 00
       -0.9764980398917301 0.0
000050 00 00 00 00 00 00 00 00 b4 98 1e 81 e7 18 91 bf
       0.0 -0.016696564918355875
000060 ff 72 17 c9 97 ac b8 3f 00 00 00 00 00 00 00 00
       0.09638355884039738 0.0
000070 00 00 00 00 00 00 00 00 2e f8 ca 03 a9 98 c8 3f
       0.0 0.19215882001111723
000080 2d 0f 43 04 48 19 ef bf 00 00 00 00 00 00 00 00
       -0.9718360980263917 0.0
000090 00 00 00 00 00 00 00 00 82 e5 c0 a1 a4 b9 c0 bf
       0.0 -0.1306653775989553
0000a0 82 17 12 f9 46 b6 ef bf 00 00 00 00 00 00 00 00
       -0.9910006394063517 0.0
0000b0 00 00 00 00 00 00 00 00 9f 16 7a 09 b6 fe e2 bf
       0.0 -0.5935926613899091

0.linear_layer.bias f8 [12]
000000 a6 83 e4 e2 8d 97 e1 bf ec cd d0 82 16 c8 d2 bf
       -0.5497502738472704 -0.29346239829030085
000010 03 58 93 1d e1 8a ef 3f 2a d1 56 0d 88 c9 bb bf
       0.9857030465743722 -0.10854387593900997
000020 5a fa 10 b9 3d a0 d0 bf 62 99 59 cc de 0b c1 bf
       -0.25978034088976687 -0.1331747529795378
000030 82 ce e9 9e 4d 86 cd bf 58 bb 45 2a 96 1d 82 3f
       -0.23066110858382066 0.00884549442772957
000040 44 b1 14 cb 93 f0 a9 bf 47 05 3a 7a ea d1 c0 3f
       -0.050663584270611156 0.13140612571809582
000050 42 2d 35 0c c9 a0 e0 3f e2 60 0c 37 86 6a db 3f
       0.5196271170074527 0.42837672591987375

1.circuit_parameters f8 [1]
000000 00 00 00 00 00 00 00 00
       0.0
