data/reuploading_classifier/params/epoch_032.pt (torch, 2547 bytes, 3 tensors)

0.linear_layer.weight f8 [12, 2]
000000 fc 5f 3e 11 bf e2 b4 bf 00 00 00 00 00 00 00 00
       -0.08158487483012772 0.0
000010 00 00 00 00 00 00 00 00 82 5b 0d 39 79 c2 f2 bf
       0.0 -1.1724788883782087
000020 6f 4f 7c bf 33 ed da bf 00 00 00 00 00 00 00 00
       -0.4207276697136341 0.0
000030 00 00 00 00 00 00 00 00 e7 0d 6b 51 88 06 d9 3f
       0.0 0.39102371169084765
000040 15 83 1b 9b bc 6b ea bf 00 00 00 00 00 00 00 00
       -0.8256514577334167 0.0
000050 00 00 00 00 00 00 00 00 8d 6b 6f 2f d5 ab d3 3f
       0.0 0.3073628390536037
000060 11 d8 b9 d9 50 41 d0 3f 00 00 00 00 00 00 00 00
       0.2539865614156734 0.0
000070 00 00 00 00 00 00 00 00 ab 11 80 c6 a0 80 e3 bf
       0.0 -0.6094516636808768
000080 09 27 54 47 31 05 ec bf 00 00 00 00 00 00 00 00
       -0.8756338494433474 0.0
000090 00 00 00 00 00 00 00 00 67 a7 cc d2 94 75 fa bf
       0.0 -1.6537063822128972
0000a0 d6 3b cd a1 6f 7b e3 bf 00 00 00 00 00 00 00 00
       -0.6088178787412015 0.0
0000b0 00 00 00 00 00 00 00 00 d2 3a de ed f6 6e d7 bf
       0.0 -0.36614773968987635

0.linear_layer.bias f8 [12]
000000 cf ac 61 a4 6a 68 e9 bf 8c 96 5e a3 eb 27 af 3f
       -0.7939961634232534 0.06085144395119099
000010 8e 63 ba 64 99 38 e6 3f 5b a8 84 54 00 65 99 bf
       0.6944090812058776 -0.024799351843434497
000020 87 e5 f2 f0 4c ad ea bf cb 24 06 e4 c2 cb ba bf
       -0.8336548524886646 -0.10467165057174836
000030 d6 89 0c 75 ef fb dc bf 2a f9 4f f4 21 60 a2 bf
       -0.452876915269511 -0.035889683793344965
000040 96 d8 11 b2 63 b1 b4 bf 3c c9 ab 6c 56 02 84 bf
       -0.08083174798398071 -0.009770083609940465
000050 e6 a7 94 d3 8c 0e f6 3f 1d c6 be da d3 50 ee 3f
       1.3785522713537772 0.9473666450850861

1.circuit_parameters f8 [1]
000000 00 00 00 00 00 00 00 00
       0.0
