data/reuploading_classifier/params/epoch_020.pt (torch, 2547 bytes, 3 tensors)

0.linear_layer.weight f8 [12, 2]
000000 e8 e4 b4 c9 9c d5 a6 bf 00 00 00 00 00 00 00 00
       -0.04459848367918956 0.0
000010 00 00 00 00 00 00 00 00 de 50 44 dd ca d1 f4 bf
       0.0 -1.301218857120197
000020 02 63 66 70 1e a0 d4 bf 00 00 00 00 00 00 00 00
       -0.32227288223798223 0.0
000030 00 00 00 00 00 00 00 00 bd 82 80 90 1f a4 f2 3f
       0.0 1.1650691647156883
000040 6c ef 71 50 31 f9 ee bf 00 00 00 00 00 00 00 00
       -0.9679190226738519 0.0
000050 00 00 00 00 00 00 00 00 d1 63 58 d6 8f a7 c2 3f
       0.0 0.14573858228757655
000060 9d 58 fe d1 97 59 b6 3f 00 00 00 00 00 00 00 00
       0.08730458142085458 0.0
000070 00 00 00 00 00 00 00 00 a6 3e 2f 8e 88 31 e3 bf
       0.0 -0.5997965600053774
000080 31 55 4e de c1 08 ef bf 00 00 00 00 00 00 00 00
       -0.9698190061487023 0.0
000090 00 00 00 00 00 00 00 00 66 f7 d7 dc 4c bd f9 bf
       0.0 -1.6087158800796373
0000a0 1f 5a 85 01 f2 20 e3 bf 00 00 00 00 00 00 00 00
       -0.5977716474251941 0.0
0000b0 00 00 00 00 00 00 00 00 ab f7 4c 77 ba 17 e1 bf
       0.0 -0.5341465311137105

0.linear_layer.bias f8 [12]
000000 ef 0b 46 60 e9 dd ec bf 80 99 93 d9 05 66 a5 3f
       -0.9020888214439519 0.041793997583044806
000010 91 1c f4 14 3a 6e ed 3f ba 67 6b 7a 29 b4 aa bf
       0.9197054299592243 -0.05215577716235438
000020 2d cf 9f 28 18 a7 e7 bf 7c 3e 64 f0 f6 78 c0 bf
       -0.7391472619478684 -0.12869154680128136
000030 e4 7a 85 00 69 fc dc bf 22 27 f6 5f 7d 2a a2 bf
       -0.4529058938114032 -0.0354804210320039
000040 20 69 47 d5 44 83 a7 bf b1 06 99 b2 d5 1a c3 bf
       -0.045923377070453464 -0.14925643177598638
000050 01 09 d8 b7 e0 6a f4 3f 67 5e a2 70 83 d3 f0 3f
       1.2760932141687251 1.051639022805739

1.circuit_parameters f8 [1]
000000 00 00 00 00 00 00 00 00
       0.0
