data/reuploading_classifier/params/epoch_023.pt (torch, 2547 bytes, 3 tensors)

0.linear_layer.weight f8 [12, 2]
00000000: 7607 471d cd82 92bf 0000 0000 0000 0000
00000010: 0000 0000 0000 0000 8a0d 3f74 4b1e f3bf
00000020: 0784 ae1c 8185 d5bf 0000 0000 0000 0000
00000030: 0000 0000 0000 0000 ecfd b911 3252 f03f
00000040: 268b 84a4 0973 ecbf 0000 0000 0000 0000
00000050: 0000 0000 0000 0000 a617 a9eb 173d d13f
00000060: fd1d a92b 50f2 c43f 0000 0000 0000 0000
00000070: 0000 0000 0000 0000 fca8 4bc1 2252 e2bf
00000080: 2696 c95c 758c ecbf 0000 0000 0000 0000
00000090: 0000 0000 0000 0000 1edf 5751 3feb fabf
000000a0: fe0e 72d5 e574 dfbf 0000 0000 0000 0000
000000b0: 0000 0000 0000 0000 805c f510 d869 dfbf
-0.018077092086748313 0.0 0.0 -1.1948961773749454 -0.3362734584898707 0.0 0.0 1.0200672810022935
-0.8890426839101095 0.0 0.0 0.26935384763452885 0.1636448109804717 0.0 0.0 -0.5725263381293924
-0.8921458065275985 0.0 0.0 -1.6824334313841471 -0.4915098747662653 0.0 0.0 -0.49083520561311644

0.linear_layer.bias f8 [12]
00000000: fd64 dafd 4506 ecbf 0730 a6ff d890 c43f
00000010: 7f8f a0fe 0075 eb3f 849d 6909 5429 96bf
00000020: ec95 c471 1dff e7bf a7fc 2809 eb2d b3bf
00000030: 8265 79ff 1f88 dcbf 1bfc 8d12 dafc 9c3f
00000040: d0cc f38a b6c8 97bf 9d90 239c 482e aabf
00000050: e134 63fc 4a08 f63f f527 9e7a a546 f03f
-0.8757657964771678 0.16067039950246473 0.8580327008425995 -0.021642029833313994 -0.7498919698743385 -0.0749194047320879 -0.4458084101548466 0.028308303244099258
-0.0232265970525532 -0.05113436609261266 1.3770246371162147 1.0172476567990973

1.circuit_parameters f8 [1]
00000000: 0000 0000 0000 0000
0.0
