data/reuploading_classifier/params/epoch_024.pt (torch, 2547 bytes, 3 tensors)

0.linear_layer.weight f8 [12, 2]
-0.006638845234816731 0.0 0.0 -1.1636592198527231 -0.33561976349710104 0.0 0.0 0.9525950119399128
-0.863492125859124 0.0 0.0 0.29740870435559247 0.1895617029993578 0.0 0.0 -0.5621343117692981
-0.86942332495249 0.0 0.0 -1.6916252164917056 -0.470693725249429 0.0 0.0 -0.4793870691588288
00000000: 06fb aa72 5531 7bbf 0000 0000 0000 0000
00000010: 0000 0000 0000 0000 164d 4f21 599e f2bf
00000020: 991f 0751 cb7a d5bf 0000 0000 0000 0000
00000030: 0000 0000 0000 0000 41ab d388 a87b ee3f
00000040: f963 1d3d baa1 ebbf 0000 0000 0000 0000
00000050: 0000 0000 0000 0000 3131 b084 be08 d33f
00000060: 4368 7ad1 8e43 c83f 0000 0000 0000 0000
00000070: 0000 0000 0000 0000 7a46 a018 01fd e1bf
00000080: e79d 61dd 50d2 ebbf 0000 0000 0000 0000
00000090: 0000 0000 0000 0000 94bb 5e9a e510 fbbf
000000a0: bc3c 1893 d81f debf 0000 0000 0000 0000
000000b0: 0000 0000 0000 0000 be65 0a1a 47ae debf

0.linear_layer.bias f8 [12]
-0.8643049111022854 0.19288479952376877 0.8352044321762512 -0.00980140742174799 -0.752685603624171 -0.0575946327912447 -0.4412240295436501 0.04794115880653628
-0.02017919296035947 -0.017350903505406558 1.3943697352434936 1.0067760362836273
00000000: ac9b dec5 62a8 ebbf 2fd0 ecf8 72b0 c83f
00000010: df7a 35a5 feb9 ea3f 5541 a6a2 c212 84bf
00000020: f38b 771e 0016 e8bf c6ec 8630 0b7d adbf
00000030: 2d5b 46b6 033d dcbf 52af 695a be8b a83f
00000040: 1034 4cb7 daa9 94bf 9a74 726c 6fc4 91bf
00000050: 9f72 b6a3 564f f63f 49c1 6330 c11b f03f

1.circuit_parameters f8 [1]
0.0
00000000: 0000 0000 0000 0000
