data/reuploading_classifier/params/epoch_095.pt (torch, 2547 bytes, 3 tensors)

0.linear_layer.weight f8 [12, 2]
-0.3301272828455356 0.0 0.0 -0.6974072783003782 -0.19981949167987056 0.0 0.0 0.20827733290172315
-0.7607633524252132 0.0 0.0 0.11280701317218966 0.4178936637910805 0.0 0.0 -0.769171042338239
-0.9016599373312838 0.0 0.0 -1.4060660588883045 -0.8105662704494249 0.0 0.0 0.694560449480569
00000000: d2b0 d52e ce20 d5bf 0000 0000 0000 0000
00000010: 0000 0000 0000 0000 1e5c 8911 2951 e6bf
00000020: 5827 ef62 af93 c9bf 0000 0000 0000 0000
00000030: 0000 0000 0000 0000 09cf a7e6 d4a8 ca3f
00000040: ef2b d562 2c58 e8bf 0000 0000 0000 0000
00000050: 0000 0000 0000 0000 c080 55a0 ebe0 bc3f
00000060: 460d cc10 c5be da3f 0000 0000 0000 0000
00000070: 0000 0000 0000 0000 5aef fb96 0c9d e8bf
00000080: d570 def0 65da ecbf 0000 0000 0000 0000
00000090: 0000 0000 0000 0000 d60d af1f 3f7f f6bf
000000a0: 6545 daac 28f0 e9bf 0000 0000 0000 0000
000000b0: 0000 0000 0000 0000 bea6 f3d5 d639 e63f

0.linear_layer.bias f8 [12]
-0.889181335918413 0.030877793821461302 0.672933491818752 0.01850715235877547 -0.8975723924480837 -0.02488807396553331 -0.4206839468446231 -0.028703512555256848
-0.05210724802892037 0.019162985044777342 1.5841450056087598 1.954082239790178
00000000: 2976 bf6a 2c74 ecbf 0811 8baa 6d9e 9f3f
00000010: f4d3 77d1 ab88 e53f 8dfb 7df8 89f3 923f
00000020: 856c ebbc e9b8 ecbf 4a36 f85e 427c 99bf
00000030: 4997 695c 7cec dabf c613 d21e 7464 9dbf
00000040: 7969 561c cdad aabf 6885 3e28 769f 933f
00000050: bb61 f36e a858 f93f ee7d 19bd eb43 ff3f

1.circuit_parameters f8 [1]
0.0
00000000: 0000 0000 0000 0000
