data/reuploading_classifier/params/epoch_066.pt (torch, 2547 bytes, 3 tensors)

0.linear_layer.weight f8 [12, 2]
0	0xbfd1d4ce6ad46747	-0.278613666845207
1	0x0000000000000000	0.0
2	0x0000000000000000	0.0
3	0xbfea1b1da783b9a3	-0.8158100387352544
4	0xbfd0e1e67d70a4ac	-0.26378786325455894
5	0x0000000000000000	0.0
6	0x0000000000000000	0.0
7	0x3fd74f4ce41c3109	0.36421510959986897
8	0xbfe822ba5c67c9d2	-0.7542392544549392
9	0x0000000000000000	0.0
10	0x0000000000000000	0.0
11	0x3fc38ceb4d4e4f53	0.15273801111890836
12	0x3fd97352e09d2365	0.3976638024801587
13	0x0000000000000000	0.0
14	0x0000000000000000	0.0
15	0xbfe6d60561b28aba	-0.7136256130364338
16	0xbfec591546ad759f	-0.8858744030400664
17	0x0000000000000000	0.0
18	0x0000000000000000	0.0
19	0xbff759aa533703bc	-1.4593909502584514
20	0xbfea6d7068cb1b2e	-0.8258592650171062
21	0x0000000000000000	0.0
22	0x0000000000000000	0.0
23	0x3fc52822e7a4ffe4	0.16528736410873457

0.linear_layer.bias f8 [12]
0	0xbfec16457b0d769a	-0.8777186778422277
1	0x3fa99ea91288eb18	0.050038608086160064
2	0x3fe56d3767be2676	0.6695820833421766
3	0x3f91295cec2dfb92	0.01675934974218369
4	0xbfeb87f34311a051	-0.8603454885424161
5	0xbfa81584a4b51522	-0.047039170366171015
6	0xbfdb41f0ca5265f9	-0.42589969404215783
7	0xbf867bd7355d8404	-0.010978394809798793
8	0xbfadb5fb7c8c5ad0	-0.05802904029240141
9	0x3f93d4f69ffff2e1	0.01936707831918028
10	0x3ff88396b5197b87	1.5321261476708246
11	0x3ff655fdfd7c098b	1.3959941770304762

1.circuit_parameters f8 [1]
0	0x0000000000000000	0.0
