data/reuploading_classifier/params/epoch_007.pt (torch, 2547 bytes, 3 tensors)

0.linear_layer.weight f8 [12, 2]
0	0xbfc122b848bbc2e7	-0.1338720660346759
1	0x0000000000000000	0.0
2	0x0000000000000000	0.0
3	0xbff42115bac91ddb	-1.258077363616272
4	0xbfd04376f5f79759	-0.2541177179358463
5	0x0000000000000000	0.0
6	0x0000000000000000	0.0
7	0x3feeb32295212a95	0.959367076176323
8	0xbff14452f462068a	-1.0791806741912375
9	0x0000000000000000	0.0
10	0x0000000000000000	0.0
11	0xbfca82a7cc061705	-0.2071122881135851
12	0xbf7db1519af0d74d	-0.007249182482203254
13	0x0000000000000000	0.0
14	0x0000000000000000	0.0
15	0xbfba67552bc669b4	-0.10313923186041657
16	0xbff1530b75f45809	-1.082774601707117
17	0x0000000000000000	0.0
18	0x0000000000000000	0.0
19	0xbfdf4074adce84d3	-0.48830906842529237
20	0xbff12f11641621f6	-1.0739911946894813
21	0x0000000000000000	0.0
22	0x0000000000000000	0.0
23	0xbfe79a5e4395b55a	-0.7375937767043681

0.linear_layer.bias f8 [12]
0	0xbfe5f8b3bad27547	-0.6866091393346004
1	0xbfa7927b256a78c0	-0.04603943664300081
2	0x3fefe8b5c742e72d	0.9971569911788031
3	0x3fc02b2f60c8d07c	0.12631790376474672
4	0xbfd94400439c7006	-0.39477545359272914
5	0x3fbb474c2fd28144	0.10655666511093381
6	0xbfd2f76217e3ec29	-0.2963490708640984
7	0x3fced3d6ec7bbbaa	0.2408398298934718
8	0xbfbab3a1f978eb36	-0.10430347767480161
9	0x3fd5f8e535dae434	0.34331636676103305
10	0x3fe15de004e158a5	0.542709359676128
11	0x3fe5852dc3ae1083	0.6725071737169092

1.circuit_parameters f8 [1]
0	0x0000000000000000	0.0
