data/reuploading_classifier/params/epoch_002.pt (torch, 2547 bytes, 3 tensors)

0.linear_layer.weight f8 [12, 2]
000000 4e 73 78 4f 89 42 d8 bf 00 00 00 00 00 00 00 00
       -0.37906105767051634 0.0
000010 00 00 00 00 00 00 00 00 f7 e9 94 46 0b d3 ed bf
       0.0 -0.9320122126148921
000020 8a 0c 45 7c 4f d1 d0 bf 00 00 00 00 00 00 00 00
       -0.262775298459197 0.0
000030 00 00 00 00 00 00 00 00 7a cc f1 56 a9 ae eb 3f
       0.0 0.8650709818015365
000040 c8 d3 70 99 f1 68 ec bf 00 00 00 00 00 00 00 00
       -0.8878105160607612 0.0
000050 00 00 00 00 00 00 00 00 e4 9b 9b f6 3e b4 98 3f
       0.0 0.02412508373427248
000060 ca 9a 37 21 51 ad c7 3f 00 00 00 00 00 00 00 00
       0.18497671243604535 0.0
000070 00 00 00 00 00 00 00 00 b7 61 e0 a7 b3 e2 d0 3f
       0.0 0.263836778585325
000080 b5 71 7d 7b ad 3a ec bf 00 00 00 00 00 00 00 00
       -0.882162800971449 0.0
000090 00 00 00 00 00 00 00 00 d0 dd 35 74 ab dc ab bf
       0.0 -0.054417951522676256
0000a0 c5 04 f2 2c 3c c7 ec bf 00 00 00 00 00 00 00 00
       -0.899320686134296 0.0
0000b0 00 00 00 00 00 00 00 00 40 b9 01 94 96 b8 e1 bf
       0.0 -0.5537827387577536

0.linear_layer.bias f8 [12]
000000 d6 82 35 23 b1 d7 e3 bf 92 d2 2e d4 1a ea d7 bf
       -0.6200795829464265 -0.37366362305628187
000010 7e 0c d4 7b 2a f1 ec 3f d6 de 4a 5e 14 53 c9 bf
       0.904439203121356 -0.19784788707851558
000020 80 64 14 ea d1 be d3 bf 03 47 b6 f6 ed db cc bf
       -0.30852172717420245 -0.22546171709523585
000030 30 39 fd 35 6e bf d2 bf 69 f8 da 9a 8e 26 b5 bf
       -0.29293399116876895 -0.0826195838990046
000040 d2 81 17 11 5d 77 bd bf d4 c7 87 ac b0 98 a3 3f
       -0.11510259310990215 0.03827430826267145
000050 9b 05 4f 47 b8 bc dc 3f 24 e8 d9 83 64 7b d7 3f
       0.44901854480493747 0.36690628887265775

1.circuit_parameters f8 [1]
000000 00 00 00 00 00 00 00 00
       0.0
