data/reuploading_classifier/params/epoch_098.pt (torch, 2547 bytes, 3 tensors)

0.linear_layer.weight f8 [12, 2]
00000000: b0e4 26ca 201e d5bf 0000 0000 0000 0000
00000010: 0000 0000 0000 0000 00d2 9f62 c038 e6bf
00000020: c0a1 d67a 3e3a c9bf 0000 0000 0000 0000
00000030: 0000 0000 0000 0000 c8de b86a 871d c93f
00000040: 5ac5 641c cb69 e8bf 0000 0000 0000 0000
00000050: 0000 0000 0000 0000 70f9 6762 acd8 be3f
00000060: 6993 2b23 dac1 da3f 0000 0000 0000 0000
00000070: 0000 0000 0000 0000 19e2 4398 e802 e9bf
00000080: d8fe d874 ddde ecbf 0000 0000 0000 0000
00000090: 0000 0000 0000 0000 62ef 233f 2664 f6bf
000000a0: fa63 8e37 7eba e9bf 0000 0000 0000 0000
000000b0: 0000 0000 0000 0000 d578 9fc9 14a5 e73f
-0.32996387235068436 0.0 0.0 -0.6944276739364454 -0.19708996770829224 0.0 0.0 0.19621365271608782
-0.7629142336428842 0.0 0.0 0.12049367334836858 0.41808179316131217 0.0 0.0 -0.781605050461681
-0.9022052080326501 0.0 0.0 -1.3994505373402366 -0.8040152630884443 0.0 0.0 0.7389015138576506

0.linear_layer.bias f8 [12]
00000000: 2ca0 e592 4da9 ecbf f0bc 47c4 c32e 9d3f
00000010: b71b 03b0 21ad e53f e6c1 9be3 8e5a 8b3f
00000020: 3bae 8e5b 9eca ecbf 7eb6 885b a48d 98bf
00000030: e62e 10a4 29dd dabf 7cc9 b16c 3d5e 9ebf
00000040: 99f0 bba8 3c45 aabf 5644 4178 5b82 903f
00000050: dc25 4230 0058 f93f 3ff0 8f7a c106 ff3f
-0.8956668728906201 0.02849870572566443 0.6773842275368825 0.01335631973367497 -0.8997337139348426 -0.023977821432870965 -0.41974869748876953 -0.029656371840653048
-0.05130948600523872 0.016122273649959183 1.5839845547765128 1.939149359473063

1.circuit_parameters f8 [1]
00000000: 0000 0000 0000 0000
0.0
