data/reuploading_classifier/params/epoch_064.pt (torch, 2547 bytes, 3 tensors)

0.linear_layer.weight f8 [12, 2]
00000000: 1913 5bbf 1944 d1bf 0000 0000 0000 0000
00000010: 0000 0000 0000 0000 b7ce e216 d355 eabf
00000020: 7c6b a17c 1941 d1bf 0000 0000 0000 0000
00000030: 0000 0000 0000 0000 3059 fcc5 334e d73f
00000040: db89 7070 511b e8bf 0000 0000 0000 0000
00000050: 0000 0000 0000 0000 903b 4511 d491 c33f
00000060: 1a42 b4b4 2139 d93f 0000 0000 0000 0000
00000070: 0000 0000 0000 0000 e9b1 f0f7 2fbd e6bf
00000080: a652 bd32 9426 ecbf 0000 0000 0000 0000
00000090: 0000 0000 0000 0000 4bb0 8174 f697 f7bf
000000a0: 4785 12e1 5bfa e9bf 0000 0000 0000 0000
000000b0: 0000 0000 0000 0000 ac34 0d94 235a c43f
-0.26978152930341676 0.0 0.0 -0.8229766318313158 -0.2695983616919688 0.0 0.0 0.36414808592361947
-0.7533347316823965 0.0 0.0 0.15288782923968514 0.3941120400131993 0.0 0.0 -0.7105941622335737
-0.8797093382841765 0.0 0.0 -1.4746002722777287 -0.8118113895363103 0.0 0.0 0.15900082329827592

0.linear_layer.bias f8 [12]
00000000: e82b 4c26 4bd0 ebbf 0edc 84eb e228 a43f
00000010: ac46 7b6b 8e74 e53f 28e3 4e20 f751 933f
00000020: 32d1 03a5 f96a ebbf 29fc da07 1736 adbf
00000030: 0428 3062 9839 dbbf fb98 c455 661a 94bf
00000040: 03d8 353a 162b aebf 20dc 025b 99ee 813f
00000050: 36d6 40fc 2b5e f83f 7827 34f3 4d59 f53f
-0.8691764591216016 0.039374438524127794 0.6704780673264472 0.018867360445912557 -0.8568084929416158 -0.05705329867259252 -0.4253903349750774 -0.019631957039700314
-0.05892247639251027 0.008755872812214405 1.5229911664622597 1.334302854551849

1.circuit_parameters f8 [1]
00000000: 0000 0000 0000 0000
0.0
