data/reuploading_classifier/params/epoch_028.pt (torch, 2547 bytes, 3 tensors)

0.linear_layer.weight f8 [12, 2]
000000 8a aa 8c 8c 7c ce 95 bf 00 00 00 00 00 00 00 00
       -0.0212954960617631 0.0
000010 00 00 00 00 00 00 00 00 50 15 3c f1 1c 62 f2 bf
       0.0 -1.1489533828001477
000020 6d 9a b9 62 99 38 d7 bf 00 00 00 00 00 00 00 00
       -0.36282953873743545 0.0
000030 00 00 00 00 00 00 00 00 9a f7 e6 7c 44 7a e4 3f
       0.0 0.6399252357002638
000040 3c 8b 7f 62 75 36 ea bf 00 00 00 00 00 00 00 00
       -0.8191477702897383 0.0
000050 00 00 00 00 00 00 00 00 01 27 60 7d f4 eb d2 3f
       0.0 0.29565155261717285
000060 29 5f e4 e2 98 31 cf 3f 00 00 00 00 00 00 00 00
       0.2437010867949934 0.0
000070 00 00 00 00 00 00 00 00 9b 1a f3 2e f0 1e e3 bf
       0.0 -0.5975266377434595
000080 c9 0c 2f 01 c5 f6 ea bf 00 00 00 00 00 00 00 00
       -0.8426232360001445 0.0
000090 00 00 00 00 00 00 00 00 62 1f 62 f2 9e 5e fb bf
       0.0 -1.710600802240116
0000a0 21 79 52 df 35 85 df bf 00 00 00 00 00 00 00 00
       -0.49250551995091213 0.0
0000b0 00 00 00 00 00 00 00 00 04 00 0a dc 51 a7 dc bf
       0.0 -0.44771238792600365

0.linear_layer.bias f8 [12]
000000 38 3d e0 3f ba dd ea bf 6e de 40 b1 7d b8 c7 3f
       -0.8395663497521246 0.18531771807623748
000010 03 3f 47 3c b6 d2 e7 3f 30 70 ea 56 52 16 5d bf
       0.7444716622648858 -0.001775341424639098
000020 15 04 4c 0f c0 be e9 bf c6 8d 25 0b 7c cb aa bf
       -0.804534940602141 -0.052333713875465857
000030 66 ee 58 a9 a6 33 dd bf 12 ad e6 d4 e3 28 a6 3f
       -0.45627752816992595 0.04328071569337956
000040 54 3e 3f b1 16 96 ae bf 1d 35 06 63 6a af 9d 3f
       -0.05973883546505179 0.02898946980854077
000050 38 d7 16 cb 94 47 f6 3f b4 e1 64 a0 d5 99 ed 3f
       1.3924758847401346 0.9250286228844318

1.circuit_parameters f8 [1]
000000 00 00 00 00 00 00 00 00
       0.0
