data/reuploading_classifier/params/epoch_008.pt (torch, 2547 bytes, 3 tensors)

0.linear_layer.weight f8 [12, 2]
-0.05151213772466967 0.0 0.0 -1.2446089042649824 -0.19956516742762087 0.0 0.0 1.0043135526046694
-1.060647957625601 0.0 0.0 -0.20769080709533888 0.010952268325639315 0.0 0.0 -0.1471254816361467
-1.0659382540651003 0.0 0.0 -0.5798186971347011 -1.0393704701281488 0.0 0.0 -0.7364295710565534
00000000: 00bf bf85 cc5f aabf 0000 0000 0000 0000
00000010: 0000 0000 0000 0000 500e c206 ebe9 f3bf
00000020: e0dd c2f5 598b c9bf 0000 0000 0000 0000
00000030: 0000 0000 0000 0000 b8dd 7516 ab11 f03f
00000040: 6e23 29fe 69f8 f0bf 0000 0000 0000 0000
00000050: 0000 0000 0000 0000 eec0 13c4 9c95 cabf
00000060: 7481 3492 246e 863f 0000 0000 0000 0000
00000070: 0000 0000 0000 0000 388b 04fe 01d5 c2bf
00000080: 373d 4c45 150e f1bf 0000 0000 0000 0000
00000090: 0000 0000 0000 0000 1db1 b9f0 df8d e2bf
000000a0: 840e 1aee 42a1 f0bf 0000 0000 0000 0000
000000b0: 0000 0000 0000 0000 b8d8 6fbf d490 e7bf

0.linear_layer.bias f8 [12]
-0.7380054554246335 -0.013747295523507772 0.9745877348926615 0.14297601294766307 -0.4394564703579305 0.11981875038079219 -0.3245373532567103 0.250830269520082
-0.12511346162639475 0.32988420625230497 0.5565516435194857 0.7382091471813601
00000000: 3930 ea9d bd9d e7bf d88e 74c5 8a27 8cbf
00000010: 5c4b 0e9e d22f ef3f f580 dcb9 094d c23f
00000020: 65fc 0c08 0e20 dcbf 6345 550e 71ac be3f
00000030: 9e59 a451 38c5 d4bf 2ae1 1b67 9a0d d03f
00000040: 82c3 fcc8 b703 c0bf 3284 54a5 d21c d53f
00000050: 9270 6e64 45cf e13f 5210 18ca 689f e73f

1.circuit_parameters f8 [1]
0.0
00000000: 0000 0000 0000 0000
