data/reuploading_classifier/params/epoch_084.pt (torch, 2547 bytes, 3 tensors)

0.linear_layer.weight f8 [12, 2]
-0.32031242480407973 0.0 0.0 -0.7154098157928502 -0.2079479831195184 0.0 0.0 0.26739287544196544
-0.7597471730172438 0.0 0.0 0.09111281135800478 0.41810202336172086 0.0 0.0 -0.7448404830247997
-0.8860171843097252 0.0 0.0 -1.434093719307049 -0.8050158281511413 0.0 0.0 0.33073666769044374
00000000: 864d 42af ff7f d4bf 0000 0000 0000 0000
00000010: 0000 0000 0000 0000 672a 4220 a3e4 e6bf
00000020: 2a3d 621d 0a9e cabf 0000 0000 0000 0000
00000030: 0000 0000 0000 0000 a439 cd01 f71c d13f
00000040: eecc aa4d d94f e8bf 0000 0000 0000 0000
00000050: 0000 0000 0000 0000 ca7c 0751 2b53 b73f
00000060: a2b8 2efd 2ec2 da3f 0000 0000 0000 0000
00000070: 0000 0000 0000 0000 e881 6ab5 bbd5 e7bf
00000080: 9dbc c9b5 405a ecbf 0000 0000 0000 0000
00000090: 0000 0000 0000 0000 1b2a 7d41 0cf2 f6bf
000000a0: fe7c d58d b0c2 e9bf 0000 0000 0000 0000
000000b0: 0000 0000 0000 0000 e861 d420 ca2a d53f

0.linear_layer.bias f8 [12]
-0.886654574611906 0.027504926830045566 0.6669092158908002 0.00670835452289054 -0.885332941835285 -0.03276336384772451 -0.41347535791182205 -0.024279559326004955
-0.05883052833277222 0.026385344028943915 1.5703219387110132 1.9689618019755855
00000000: 5bd2 196a 795f ecbf 7e0d db64 402a 9c3f
00000010: 1bdd f4fe 5157 e53f 0497 9234 387a 7b3f
00000020: ed20 e8bf a554 ecbf 0342 7710 5cc6 a0bf
00000030: 11b9 fb58 6176 dabf f1e0 10a5 bddc 98bf
00000040: 4c2d 64f6 081f aebf 8ac6 ca76 c204 9b3f
00000050: 2a48 afe5 0920 f93f 13ef 2817 de80 ff3f

1.circuit_parameters f8 [1]
0.0
00000000: 0000 0000 0000 0000
