data/reuploading_classifier/params/epoch_069.pt (torch, 2547 bytes, 3 tensors)

0.linear_layer.weight f8 [12, 2]
00000000: 35b7 08a1 bc14 d2bf 0000 0000 0000 0000
00000010: 0000 0000 0000 0000 93d6 bae3 e27b e9bf
00000020: bb53 e131 6075 cfbf 0000 0000 0000 0000
00000030: 0000 0000 0000 0000 e9ac 462a 3176 d63f
00000040: ae6c c8e8 8bf8 e7bf 0000 0000 0000 0000
00000050: 0000 0000 0000 0000 3b29 f29d 148c c33f
00000060: b608 53e3 eb1c da3f 0000 0000 0000 0000
00000070: 0000 0000 0000 0000 f072 c8f9 e5bc e6bf
00000080: e5ca ac50 0954 ecbf 0000 0000 0000 0000
00000090: 0000 0000 0000 0000 479e 7fa7 ea04 f7bf
000000a0: 4d90 15a7 52a4 eabf 0000 0000 0000 0000
000000b0: 0000 0000 0000 0000 68fb 5546 cf09 c33f
-0.28251567579251297 0.0 0.0 -0.7963728378151295 -0.2457695239596925 0.0 0.0 0.35096387032053983
-0.7490901514569452 0.0 0.0 0.15271241867260152 0.40801522445338934 0.0 0.0 -0.7105588797163289
-0.8852583480532671 0.0 0.0 -1.4387003462706092 -0.832558943115609 0.0 0.0 0.14873686727875257

0.linear_layer.bias f8 [12]
00000000: f4b3 db44 1e1a ecbf 84b0 9883 f2f5 ab3f
00000010: 53d3 5451 1876 e53f b4b1 093a e72d 7c3f
00000020: a784 d290 7695 ebbf b425 8521 3ead a4bf
00000030: f875 dc59 61cc dabf cd21 09d6 aabb 77bf
00000040: 480a 1beb ee9e abbf a0b5 5b87 4d20 9a3f
00000050: 0b7a ba80 cab1 f83f db47 ce2c 7c1b f83f
-0.8781882614981655 0.054610804142016384 0.6706658924582406 0.006879714230859358 -0.8619950130997908 -0.04038423690014828 -0.41872438216691377 -0.005794207886147662
-0.05394693965856284 0.02551385058079847 1.5434060123876658 1.5067102194047866

1.circuit_parameters f8 [1]
00000000: 0000 0000 0000 0000
0.0
