data/reuploading_classifier/params/epoch_062.pt (torch, 2547 bytes, 3 tensors)

0.linear_layer.weight f8 [12, 2]
-0.2554452082720373 0.0 0.0 -0.8213918524260577 -0.27070298273353344 0.0 0.0 0.36348776416919076
-0.7480240591067192 0.0 0.0 0.15956103214708933 0.39353348719813763 0.0 0.0 -0.7012436209683669
-0.8685949689095959 0.0 0.0 -1.4861725029119135 -0.7920810389821143 0.0 0.0 0.16364799335461502
00000000: 18b1 dcdb 3659 d0bf 0000 0000 0000 0000
00000010: 0000 0000 0000 0000 66dd eb90 d748 eabf
00000020: 9c4a 719a 3253 d1bf 0000 0000 0000 0000
00000030: 0000 0000 0000 0000 d994 e62e 6243 d73f
00000040: 4581 cf26 d0ef e7bf 0000 0000 0000 0000
00000050: 0000 0000 0000 0000 1ad5 64f3 7e6c c43f
00000060: c265 5914 a72f d93f 0000 0000 0000 0000
00000070: 0000 0000 0000 0000 e5ce 5276 9670 e6bf
00000080: affa 1dad 87cb ebbf 0000 0000 0000 0000
00000090: 0000 0000 0000 0000 c389 83d1 5cc7 f7bf
000000a0: 5bb7 c655 ba58 e9bf 0000 0000 0000 0000
000000b0: 0000 0000 0000 0000 edcd c1dd 6af2 c43f

0.linear_layer.bias f8 [12]
-0.8569067779405811 0.03208982836786921 0.6707833678309407 0.023153583492605018 -0.8506910830059669 -0.06228101479032761 -0.4218676312914502 -0.025189435116087625
-0.05896635963543066 0.005270649457446288 1.5134615701874705 1.3282488760665687
00000000: 8b37 5fc3 c76b ebbf de9d bff6 136e a03f
00000010: ae1b 71ae 0e77 e53f e834 8baf 92b5 973f
00000020: 684d 9081 dc38 ebbf f94e 5f13 4ce3 afbf
00000030: 24d1 e817 e1ff dabf 61fd 1c60 42cb 99bf
00000040: 068e 65b4 d630 aebf 9c4b c630 ad96 753f
00000050: f253 bb7a 2337 f83f 8779 bae4 8140 f53f

1.circuit_parameters f8 [1]
0.0
00000000: 0000 0000 0000 0000
