data/reuploading_classifier/params/epoch_022.pt (torch, 2547 bytes, 3 tensors)

0.linear_layer.weight f8 [12, 2]
00000000: ae1d c211 e7d7 9fbf 0000 0000 0000 0000
00000010: 0000 0000 0000 0000 ef75 b4a9 04b8 f3bf
00000020: ae1c c086 2082 d5bf 0000 0000 0000 0000
00000030: 0000 0000 0000 0000 3518 de9c 1643 f13f
00000040: 7e96 dcc1 ab57 edbf 0000 0000 0000 0000
00000050: 0000 0000 0000 0000 6d75 08d5 d8a1 cd3f
00000060: 0356 8bbc 396c c13f 0000 0000 0000 0000
00000070: 0000 0000 0000 0000 97cc f91e 5ec0 e2bf
00000080: accc eb14 cf64 edbf 0000 0000 0000 0000
00000090: 0000 0000 0000 0000 025a 2efb 49af fabf
000000a0: 065a a88f 89b2 e0bf 0000 0000 0000 0000
000000b0: 0000 0000 0000 0000 2bf0 c94b a83f e0bf
-0.031097040614012243 0.0 0.0 -1.2324263218973746 -0.33606732520315574 0.0 0.0 1.0788789870871487
-0.9169520174370545 0.0 0.0 0.23150167848590844 0.13611528116477709 0.0 0.0 -0.5859823803897538
-0.9185557755103182 0.0 0.0 -1.667795163322467 -0.5217941098988497 0.0 0.0 -0.5077706794977578

0.linear_layer.bias f8 [12]
00000000: 06e0 e911 da68 ecbf 3030 44f9 4b14 bf3f
00000010: e50c d152 5126 ec3f 2395 3993 7985 a1bf
00000020: 6755 e71c 6af7 e7bf 8cda f9b6 b34f b8bf
00000030: 19d2 dc09 30e6 dcbf e84f b925 de5c 743f
00000040: 55c8 7a4f 0fce 9ebf 3879 0066 9078 b6bf
00000050: 075f 1a68 7a9e f53f bd88 e15f 4e96 f03f
-0.8877992963671211 0.12140345416645526 0.8796774499427583 -0.03422145769290299 -0.7489519657635072 -0.09496615616977006 -0.45154953921454105 0.004971378100510272
-0.03008293078045939 -0.08777716150550396 1.351190954830544 1.0366958375312116

1.circuit_parameters f8 [1]
00000000: 0000 0000 0000 0000
0.0
