data/reuploading_classifier/params/epoch_059.pt (torch, 2547 bytes, 3 tensors)

0.linear_layer.weight f8 [12, 2]
00000000: 4157 645d 17d4 cebf 0000 0000 0000 0000
00000010: 0000 0000 0000 0000 93e8 26c6 674b eabf
00000020: 2236 06b3 cfeb d1bf 0000 0000 0000 0000
00000030: 0000 0000 0000 0000 e932 5945 faa1 d73f
00000040: 7fff e315 8be5 e7bf 0000 0000 0000 0000
00000050: 0000 0000 0000 0000 5ea0 3977 a318 c63f
00000060: 0df8 1178 0abb d83f 0000 0000 0000 0000
00000070: 0000 0000 0000 0000 ed84 550f 290f e6bf
00000080: 39da a17a 3b74 ebbf 0000 0000 0000 0000
00000090: 0000 0000 0000 0000 a21a 9635 b116 f8bf
000000a0: bd8f bdf0 1d82 e8bf 0000 0000 0000 0000
000000b0: 0000 0000 0000 0000 ef16 86dc 0292 c03f
-0.2408475118651783 0.0 0.0 -0.821704756751631 -0.280017781093962 0.0 0.0 0.36926132938678663
-0.7467704227019424 0.0 0.0 0.17262690850771184 0.3864160702286206 0.0 0.0 -0.6893506335728979
-0.8579385180626736 0.0 0.0 -1.505540093728691 -0.765883417316665 0.0 0.0 0.12945590751421984

0.linear_layer.bias f8 [12]
00000000: 263d 3beb 0820 ebbf 554b 800c 4a84 a23f
00000010: b52d 639c d44c e53f 0259 6774 df94 a23f
00000020: ccb8 8e64 8447 ebbf a374 ce12 18d1 abbf
00000030: 743b ecd7 cd50 dbbf bda0 6446 f16e 91bf
00000040: dc52 c14d f46f b0bf 773a 506c b726 993f
00000050: 6a30 4125 b1f7 f73f fd79 a61c 99b5 f43f
-0.8476605028498951 0.03616553690530703 0.6656287245218012 0.036292059859691875 -0.852480121995336 -0.05432963590212949 -0.42680688940247724 -0.017024774476482863
-0.06420828722304911 0.024561754213261424 1.4979716735133715 1.2943354720260907

1.circuit_parameters f8 [1]
00000000: 0000 0000 0000 0000
0.0
