data/reuploading_classifier/params/epoch_044.pt (torch, 2547 bytes, 3 tensors)

0.linear_layer.weight f8 [12, 2]
00000000: e441 75a0 7056 bcbf 0000 0000 0000 0000
00000010: 0000 0000 0000 0000 01e1 4c3a 073f f2bf
00000020: 34c4 06c0 3f6a d9bf 0000 0000 0000 0000
00000030: 0000 0000 0000 0000 643a 729c 2272 d63f
00000040: 9c9c 50c8 28a5 e8bf 0000 0000 0000 0000
00000050: 0000 0000 0000 0000 d02e feb7 bc30 d63f
00000060: 01b6 b811 f4fd d63f 0000 0000 0000 0000
00000070: 0000 0000 0000 0000 f519 74cb d75c e5bf
00000080: 7c7d 3b88 ae6f ecbf 0000 0000 0000 0000
00000090: 0000 0000 0000 0000 f45e f407 8be2 f7bf
000000a0: 12d0 634d d568 eabf 0000 0000 0000 0000
000000b0: 0000 0000 0000 0000 d5ce 392e d4e0 c3bf
-0.1106939689391378 0.0 0.0 -1.1403877522807877 -0.3971099257715338 0.0 0.0 0.35071625974607046
-0.7701610481643857 0.0 0.0 0.3467246815496141 0.3592500851690091 0.0 0.0 -0.6675833677007278
-0.8886330281056156 0.0 0.0 -1.4928083716130773 -0.8252970229646073 0.0 0.0 -0.155298731394956

0.linear_layer.bias f8 [12]
00000000: 8ee8 1dca 4ab3 eabf b580 490e 7ce6 813f
00000010: 85ba 30a5 3b09 e63f bea3 1be9 7ed3 9b3f
00000020: 5b24 6dae bd09 ebbf c6bc c4b5 a12d aabf
00000030: 383a 57bc 7825 ddbf 4c08 9d5a 504c 94bf
00000040: 3513 ced0 b995 b0bf a54d e413 4f23 bb3f
00000050: 390d 824b 53ad f73f 6f33 b3be 7d49 f23f
-0.8343862483591395 0.008740395723350817 0.6886270738958308 0.027173979738026814 -0.844939079929769 -0.05112939208844973 -0.4554120864167177 -0.019822364359477526
-0.06478463504579397 0.10600752101554763 1.4798157643825347 1.142942185327424

1.circuit_parameters f8 [1]
00000000: 0000 0000 0000 0000
0.0
